…
    dropout_rates: [0.39590505448580215]
    dense_dropout_rates: [0.0722648155725547, 0.2552337225250547]
    learning_rate: 0.0004904675099523709
    bidirectional: False
    batch_norm: False
------------------------------
Model Architecture (Summary from one of the final trained models):
Model: "sequential"
┏━━━━━━━━━━━━━━━━━━━━━━━━━━━━━━━━━━━━━━┳━━━━━━━━━━━━━━━━━━━━━━━━━━━━━┳━━━━━━━━━━━━━━━━━┓
┃ Layer (type)                         ┃ Output Shape                ┃         Param # ┃
┡━━━━━━━━━━━━━━━━━━━━━━━━━━━━━━━━━━━━━━╇━━━━━━━━━━━━━━━━━━━━━━━━━━━━━╇━━━━━━━━━━━━━━━━━┩
│ lstm_1 (LSTM)                        │ (None, 61)                  │          18,300 │
├──────────────────────────────────────┼─────────────────────────────┼─────────────────┤
│ dropout (Dropout)                    │ (None, 61)                  │               0 │
├──────────────────────────────────────┼─────────────────────────────┼─────────────────┤
│ dense (Dense)                        │ (None, 60)                  │           3,720 │
├──────────────────────────────────────┼─────────────────────────────┼─────────────────┤
│ dropout_1 (Dropout)                  │ (None, 60)                  │               0 │
├──────────────────────────────────────┼─────────────────────────────┼─────────────────┤
│ dense_1 (Dense)                      │ (None, 24)                  │           1,464 │
├──────────────────────────────────────┼─────────────────────────────┼─────────────────┤
│ dropout_2 (Dropout)                  │ (None, 24)                  │               0 │
├──────────────────────────────────────┼─────────────────────────────┼─────────────────┤
│ dense_2 (Dense)                      │ (None, 6)                   │             150 │
├──────────────────────────────────────┼─────────────────────────────┼─────────────────┤
│ dense_3 (Dense)                      │ (None, 1)                   │               7 │
├──────────────────────────────────────┼─────────────────────────────┼─────────────────┤
│ scaled_output_clipping (Lambda)      │ (None, 1)                   │               0 │
└──────────────────────────────────────┴─────────────────────────────┴─────────────────┘
 Total params: 23,641 (92.35 KB)
 Trainable params: 23,641 (92.35 KB)
 Non-trainable params: 0 (0.00 B)

------------------------------
Evaluation Results (Final Test Set):
    Metrics (Post-processed, Original Scale):
    RMSE: 0.05
    MAE: 0.02
    MAPE: 1097678.13%
    SMAPE: 26.36%
    R²: 0.8614
------------------------------
…
