# LSTM Low Resolution Model Architecture

Model: "sequential_3"
┏━━━━━━━━━━━━━━━━━━━━━━━━━━━━━━━━━━━━━━┳━━━━━━━━━━━━━━━━━━━━━━━━━━━━━┳━━━━━━━━━━━━━━━━━┓
┃ Layer (type)                         ┃ Output Shape                ┃         Param # ┃
┡━━━━━━━━━━━━━━━━━━━━━━━━━━━━━━━━━━━━━━╇━━━━━━━━━━━━━━━━━━━━━━━━━━━━━╇━━━━━━━━━━━━━━━━━┩
│ lstm_5 (LSTM)                        │ (None, 24, 229)             │         218,924 │
├──────────────────────────────────────┼─────────────────────────────┼─────────────────┤
│ batch_normalization_9                │ (None, 24, 229)             │             916 │
│ (BatchNormalization)                 │                             │                 │
├──────────────────────────────────────┼─────────────────────────────┼─────────────────┤
│ dropout_6 (Dropout)                  │ (None, 24, 229)             │               0 │
├──────────────────────────────────────┼─────────────────────────────┼─────────────────┤
│ lstm_6 (LSTM)                        │ (None, 66)                  │          78,144 │
├──────────────────────────────────────┼─────────────────────────────┼─────────────────┤
│ batch_normalization_10               │ (None, 66)                  │             264 │
│ (BatchNormalization)                 │                             │                 │
├──────────────────────────────────────┼─────────────────────────────┼─────────────────┤
│ dropout_7 (Dropout)                  │ (None, 66)                  │               0 │
├──────────────────────────────────────┼─────────────────────────────┼─────────────────┤
│ dense_7 (Dense)                      │ (None, 42)                  │           2,814 │
├──────────────────────────────────────┼─────────────────────────────┼─────────────────┤
│ batch_normalization_11               │ (None, 42)                  │             168 │
│ (BatchNormalization)                 │                             │                 │
├──────────────────────────────────────┼─────────────────────────────┼─────────────────┤
│ dense_8 (Dense)                      │ (None, 1)                   │              43 │
└──────────────────────────────────────┴─────────────────────────────┴─────────────────┘
 Total params: 902,473 (3.44 MB)
 Trainable params: 300,599 (1.15 MB)
 Non-trainable params: 674 (2.63 KB)
 Optimizer params: 601,200 (2.29 MB)



# Data Information

## Data Source
- Data loaded from: data/station_data_1h.parquet
- Data shape: 16181 training samples, 3467 validation samples, 3469 test samples
…
