…
    dense_units: [52, 18]
    dropout_rates: [0.3855244728460264, 0.18543733556034217]
    dense_dropout_rates: [0.24439625936369605]
    learning_rate: 0.0019187979077377184
    bidirectional: False
    batch_norm: False
------------------------------
Model Architecture:
Model: "sequential_1"
┏━━━━━━━━━━━━━━━━━━━━━━━━━━━━━━━━━━━━━━┳━━━━━━━━━━━━━━━━━━━━━━━━━━━━━┳━━━━━━━━━━━━━━━━━┓
┃ Layer (type)                         ┃ Output Shape                ┃         Param # ┃
┡━━━━━━━━━━━━━━━━━━━━━━━━━━━━━━━━━━━━━━╇━━━━━━━━━━━━━━━━━━━━━━━━━━━━━╇━━━━━━━━━━━━━━━━━┩
│ lstm_4 (LSTM)                        │ (None, 4, 70)               │          23,520 │
├──────────────────────────────────────┼─────────────────────────────┼─────────────────┤
│ dropout_3 (Dropout)                  │ (None, 4, 70)               │               0 │
├──────────────────────────────────────┼─────────────────────────────┼─────────────────┤
│ lstm_5 (LSTM)                        │ (None, 37)                  │          15,984 │
├──────────────────────────────────────┼─────────────────────────────┼─────────────────┤
│ dropout_4 (Dropout)                  │ (None, 37)                  │               0 │
├──────────────────────────────────────┼─────────────────────────────┼─────────────────┤
│ dense_3 (Dense)                      │ (None, 52)                  │           1,976 │
├──────────────────────────────────────┼─────────────────────────────┼─────────────────┤
│ dropout_5 (Dropout)                  │ (None, 52)                  │               0 │
├──────────────────────────────────────┼─────────────────────────────┼─────────────────┤
│ dense_4 (Dense)                      │ (None, 18)                  │             954 │
├──────────────────────────────────────┼─────────────────────────────┼─────────────────┤
│ dense_5 (Dense)                      │ (None, 1)                   │              19 │
├──────────────────────────────────────┼─────────────────────────────┼─────────────────┤
│ scaled_output_clipping (Lambda)      │ (None, 1)                   │               0 │
└──────────────────────────────────────┴─────────────────────────────┴─────────────────┘
 Total params: 127,361 (497.51 KB)
 Trainable params: 42,453 (165.83 KB)
 Non-trainable params: 0 (0.00 B)
 Optimizer params: 84,908 (331.68 KB)

------------------------------
Evaluation Results (Test Set):
    Metrics (Post-processed, Original Scale):
    RMSE: 474.46
    MAE: 220.53
    MAPE: 12355779162.80%
…
